MODEL_NAME:  error_bar
Start time:  2023-10-18 17:22:47.268327
Loading data...
Data loaded.
Device:  cuda
Max Epochs:  200
Early Stopping Reference Size:  5
Model: "sequential"
_________________________________________________________________
 Layer (type)                Output Shape              Param #   
=================================================================
 conv1d (Conv1D)             (None, 69, 160)           5920      
                                                                 
 conv1d_1 (Conv1D)           (None, 60, 128)           204928    
                                                                 
 conv1d_2 (Conv1D)           (None, 53, 96)            98400     
                                                                 
 conv1d_3 (Conv1D)           (None, 48, 64)            36928     
                                                                 
 global_max_pooling1d (Globa  (None, 64)               0         
 lMaxPooling1D)                                                  
                                                                 
 dropout (Dropout)           (None, 64)                0         
                                                                 
 dense (Dense)               (None, 6)                 390       
                                                                 
=================================================================
Total params: 346,566
Trainable params: 346,566
Non-trainable params: 0
_________________________________________________________________
None
Epoch 1/150
 1/19 [>.............................] - ETA: 6s - loss: 2.3297 - accuracy: 0.1641
…
