MODEL_NAME:  cnn1d-nonlearned
Start time:  2023-10-31 20:11:56.659376
Loading data...
Data loaded.
Model: "sequential"
_________________________________________________________________
 Layer (type)                Output Shape              Param #   
=================================================================
 conv1d (Conv1D)             (None, 69, 160)           5920      
                                                                 
 conv1d_1 (Conv1D)           (None, 60, 128)           204928    
                                                                 
 conv1d_2 (Conv1D)           (None, 53, 96)            98400     
                                                                 
 conv1d_3 (Conv1D)           (None, 48, 64)            36928     
                                                                 
 global_max_pooling1d (Globa  (None, 64)               0         
 lMaxPooling1D)                                                  
                                                                 
 dropout (Dropout)           (None, 64)                0         
                                                                 
 dense (Dense)               (None, 6)                 390       
                                                                 
=================================================================
Total params: 346,566
Trainable params: 346,566
Non-trainable params: 0
_________________________________________________________________
None
  1/258 [..............................] - ETA: 1:00  4/258 [..
…
