cnn1d_tf
Start time:  2023-07-14 14:31:14.382116
Model: "sequential"
_________________________________________________________________
 Layer (type)                Output Shape              Param #   
=================================================================
 conv1d (Conv1D)             (None, 69, 160)           5920      
                                                                 
 conv1d_1 (Conv1D)           (None, 60, 128)           204928    
                                                                 
 conv1d_2 (Conv1D)           (None, 53, 96)            98400     
                                                                 
 conv1d_3 (Conv1D)           (None, 48, 64)            36928     
                                                                 
 global_max_pooling1d (Globa  (None, 64)               0         
 lMaxPooling1D)                                                  
                                                                 
 dropout (Dropout)           (None, 64)                0         
                                                                 
 dense (Dense)               (None, 6)                 390       
                                                                 
=================================================================
Total params: 346,566
Trainable params: 346,566
Non-trainable params: 0
_________________________________________________________________
None
Epoch 1/150
 1/18 [>.............................] - ETA: 6s - loss: 3.4311 - accuracy: 0.0957
…
